docs/learning-py-torch/cifar_net.pth (torch, 251519 bytes, 10 tensors)

conv1.weight f4 [6, 3, 5, 5]
000000 10 8d 56 3d f0 46 7e 3d 08 5b 80 3c aa 88 a3 bd
       0.05238062 0.06207937 0.015668407 -0.07985051
000010 a8 9d 02 3d a8 d8 d6 3c b0 1f 4b 3c 40 1d 87 bc
       0.031888634 0.026226357 0.012397692 -0.01649344
000020 08 62 c2 3d f0 0e 0c 3d e3 18 a6 bd 5c 8b 23 bd
       0.09491354 0.034193933 -0.081102155 -0.039927825
000030 e4 d4 f1 bc 10 e2 dd bc dd a4 65 bd c4 7b 7a 3d
       -0.02952046 -0.027085334 -0.05606543 0.06115319
000040 b6 6c ba bd 10 c2 68 3d e4 9f e6 bc 32 8f c4 3d
       -0.09102766 0.056825697 -0.028152414 0.09597625
000050 58 54 27 bc 70 d3 ae 3c f4 eb be bd 46 75 7f bd
       -0.01021298 0.021341056 -0.09322348 -0.0623677
000060 42 db d4 3d 56 36 ce 3d a4 c2 17 3d b8 b2 cb 3d
       0.103933826 0.100689575 0.03705086 0.09946197
000070 20 05 13 bc ea 3e d6 3d 72 da 00 bd 80 36 0c bd
       -0.00897339 0.10461219 -0.031458326 -0.034231663
000080 58 33 68 bc 10 db 44 3c 38 1e 44 3d 6e 8c 4b bd
       -0.014172398 0.012015119 0.04788038 -0.04969447
000090 70 7c 82 bb b0 04 0f 3d b8 6f 3c 3d 9c c8 8e bd
       -0.0039821193 0.03491658 0.04600498 -0.06971857
0000a0 28 a5 57 3d 33 9d e2 bd da fd cb 3d 54 6d 84 3d
       0.05264774 -0.110651396 0.09960528 0.06466165
0000b0 c6 c4 d0 3d 68 27 85 3c 1c 37 82 3d db 0e ba bd
       0.101937816 0.016254142 0.063581675 -0.09084865
0000c0 b8 64 76 bc ef 22 78 bd 34 93 ce bd 98 93 df 3d
       -0.015038662 -0.06058019 -0.100866705 0.10916823
0000d0 cc bf 16 bd 5e 90 b6 3d cc cf 09 bd b0 aa 2f bc
       -0.036804006 0.089142546 -0.033645436 -0.010721847
0000e0 b9 ce 73 bd 82 46 dc 3d 38 c1 42 3d 94 21 d7 bd
       -0.059523318 0.10755636 0.04754755 -0.105044514
0000f0 c8 d5 ff bc 64 cf c2 3d d2 3f 1c bd d8 80 d9 3d
       -0.031229869 0.09512213 -0.0381468 0.10620278
000100 a4 ce aa 3d 0a 86 a8 3d 00 fa 01 3d 96 90 93 3d
       0.08340195 0.08228691 0.03173256 0.07205312
000110 88 5c 02 3c 63 04 e3 bd a2 05 32 bd 7e 06 a5 3d
       0.0079566315 -0.11084821 -0.043462403 0.08057879
000120 bf 97 bc bd 42 ef 9a bd a1 54 8f bd 4c 35 00 3d
       -0.09208631 -0.07565166 -0.069985636 0.031300828
000130 c4 09 c9 bd 10 7d 44 3c 68 29 bb 3c 18 c0 e0 bc
       -0.09816316 0.011992708 0.022846892 -0.027435347
000140 f7 bf e7 bd 2e 57 ce 3d 58 42 7f bc cc d5 b7 bd
       -0.11315911 0.10075222 -0.015579782 -0.089763254
000150 06 67 83 3d 68 59 38 3d 58 36 fc bc 78 ca de bc
       0.064161345 0.04500714 -0.030787632 -0.027196154
000160 86 62 e3 3d e6 22 c1 bd 80 ee e1 3b d6 af af 3d
       0.11102776 -0.094304845 0.0068948865 0.0857846
000170 8c 18 e9 bd 0a 10 84 3d 10 82 d3 3d c0 b1 1f 3c
       -0.11381635 0.06448372 0.10327542 0.009746969
000180 a8 63 ed 3c 40 01 a5 bb ec 52 62 3d 28 7c 3c 3d
       0.028978184 -0.0050355494 0.05525486 0.046016842
000190 50 df bf 3c ea 7c 3c bd 98 ff 7c 3d a4 c1 4b 3d
       0.023421913 -0.046017565 0.06176719 0.049745217
0001a0 b0 d7 27 3c f6 12 67 bd 92 ff e5 3d fe 85 46 bd
       0.010244295 -0.056414567 0.11230387 -0.04846763
0001b0 72 9b 83 3d ae 41 ec 3d 88 8c b0 bd a8 40 1d bd
       0.06426133 0.11535965 -0.08620554 -0.03839174
0001c0 bc 1b 17 3d 68 a5 82 3d 00 af cd 3c 60 ca 46 3d
       0.036891684 0.06379205 0.02510786 0.048532844
0001d0 08 5e cf 3c 94 5d 6f 3d c6 65 1a bd 60 2a 24 3c
       0.025313392 0.058438852 -0.037694715 0.010019869
0001e0 90 bb a3 3c c6 a4 dd 3d d7 3a ca bd f0 2b d7 3b
       0.019986898 0.10822444 -0.09874504 0.006566517
0001f0 30 52 37 bd 40 e2 94 ba 80 20 db bb 82 aa bd 3d
       -0.044756114 -0.0011358932 -0.006687224 0.092610374
000200 78 b2 df 3d 8c e6 6e 3d d0 40 b8 3b a0 62 45 bc
       0.10922712 0.058325335 0.0056229606 -0.01204744
000210 7a fa 0f bd 24 de 83 3d 97 76 6f bd 75 53 93 bd
       -0.035150982 0.06438854 -0.058462705 -0.071936525
000220 00 cb 24 3a 1a 42 dd bd 40 23 e0 3c ce 44 87 3d
       0.0006286353 -0.108036235 0.027360559 0.0660492
000230 14 27 11 3d 40 59 45 bd f8 90 c8 3d a6 7f 85 3d
       0.03543766 -0.04818082 0.097932756 0.06518488
000240 fc 48 58 bd c0 9a c0 ba 20 3f c0 3d 24 3e 94 3d
       -0.05280398 -0.0014694557 0.0938704 0.07238415
000250 74 66 a4 3d ee 32 dd 3d 34 b5 fa bc be 9e 85 bd
       0.08027354 0.1080073 -0.030603983 -0.06524418
000260 80 df 56 bc c6 0e cb 3d 40 89 8c bb 59 2c e6 bd
       -0.01311481 0.09914927 -0.0042888224 -0.112389274
000270 e0 8e 89 bc 09 ac 9d bd 5c eb 15 3d 14 40 37 bd
       -0.01679176 -0.07698829 0.03660141 -0.044738844
000280 98 57 34 bd 30 eb ba 3c c8 7a 41 bd f8 98 7e 3d
       -0.04402885 0.022817224 -0.047236234 0.0621576
000290 96 4c 91 bd a8 0f a7 3c e0 67 67 3b a0 24 1c 3c
       -0.07094686 0.020393208 0.0035309717 0.009530216
0002a0 78 f5 63 bc 58 38 b3 bc 6a ae 9b 3d c2 74 b8 bd
       -0.013913505 -0.021877453 0.07601626 -0.09006645
0002b0 88 de 02 3c c6 65 c0 bd 18 a9 b8 bd b4 2f 4d bd
       0.007987626 -0.09394412 -0.09016627 -0.05009432
0002c0 50 ae d3 bb 1c da b6 bd a6 b3 e3 3d de 24 b0 bd
       -0.0064599887 -0.0892832 0.111182496 -0.08600782
0002d0 0e d1 95 bd ec 79 9f 3d 56 17 20 bd 09 72 d8 bd
       -0.07315265 0.077869266 -0.039084755 -0.105686255
0002e0 b8 49 e6 3d 2c 3b 1c 3d ca 80 5c bd 22 6b 9c 3d
       0.112445295 0.03814237 -0.05383376 0.076376215
0002f0 24 b1 a6 bd a8 f6 a0 3d 22 9f a1 bd 28 31 c7 3c
       -0.08139256 0.07859546 -0.0789168 0.024315432
000300 78 51 0b bd 28 f7 a7 3c ce 6d be bd 72 0a e2 3d
       -0.03401324 0.020503595 -0.09298287 0.110371485
000310 48 49 68 3d f8 20 72 bc 3a aa ea bd 58 8b b4 3c
       0.05671051 -0.014778368 -0.114582494 0.0220391
000320 0c 37 00 3d 90 b3 83 3d 70 9f d2 bc 7c 60 a9 3d
       0.031302497 0.06430733 -0.025710791 0.08270356
000330 44 35 3b bd ee 0f 8e bd 30 e4 b7 bd 44 b9 0d 3d
       -0.045705095 -0.06936632 -0.0897907 0.03460051
000340 c0 ca 02 bd 43 fd af bd 00 c5 57 3a 04 1a 9d bd
       -0.03193164 -0.08593228 0.00082309544 -0.07670978
000350 94 85 4e 3d 64 0c d6 3d 40 c9 27 3d ec ea b6 3d
       0.05042036 0.10451582 0.04096341 0.089315265
000360 30 c6 fe bc 32 24 81 bd 4f 84 e7 bd b0 7c ff bb
       -0.031100363 -0.06305732 -0.11304533 -0.0077968463
000370 5b fd e5 bd 38 d8 a2 bd 5c a2 1e 3d 96 a0 3f bd
       -0.11229964 -0.07951397 0.038729057 -0.046784006
000380 98 cd e1 3d 40 cf 8e 3a dc b1 51 3d 0c 06 61 bd
       0.11025542 0.0010895506 0.05119501 -0.054937407
000390 20 93 6a bc 04 af b7 bc ba bf 69 bd 70 2c bb bc
       -0.014317304 -0.022422321 -0.05706761 -0.022848338
0003a0 b5 1c 82 bd 30 bb bb 3b 50 22 2c 3c 90 6c c1 3d
       -0.06353132 0.0057291016 0.010506228 0.09444535
0003b0 5a a6 89 3d b8 90 ae 3c 50 bc da 3d b1 7a 7d bd
       0.06721182 0.021309242 0.10680449 -0.061884586
0003c0 be ca b7 3d 10 a0 3e 3c d8 20 0f 3c 08 ac c6 bd
       0.08974217 0.011634842 0.008735858 -0.09700781
0003d0 00 fc 87 3c 80 9d 73 bc a0 cd c4 bd 40 dd 9c 3a
       0.016599655 -0.014869094 -0.09609532 0.0011967793
0003e0 92 1a 2a bd 06 54 e7 3d 38 f1 4b bd 80 2b 64 bb
       -0.041529246 0.11295323 -0.04979059 -0.0034815967
0003f0 76 38 c7 bd 6a 11 eb bd 8c e9 cc bd c2 9f cb 3d
       -0.09727566 -0.11477931 -0.10005483 0.09942581

conv1.bias f4 [6]
000000 9c fa 13 bd ab ac e9 bd 68 ed 1c 3d 3c 32 d8 bc
       -0.03612767 -0.11409887 0.038312346 -0.026391141
000010 fc 46 4b 3d 98 e3 43 3d
       0.049628243 0.047824472

conv2.weight f4 [16, 6, 5, 5]
000000 d6 34 fc bc 08 a0 7a 3d 80 7f 19 bc ce bb 31 bd
       -0.030786913 0.061187774 -0.009368777 -0.043391995
000010 00 57 b5 3c c0 b5 04 bb 00 b4 0a ba f0 df 52 3c
       0.022136211 -0.0020249933 -0.00052911043 0.012870774
000020 92 d5 10 3d 64 b2 52 3d 58 94 39 bc ec 51 70 3d
       0.035359927 0.051439658 -0.011326872 0.058671877
000030 80 17 9d 3d 30 72 87 3d e8 ff ba 3c 82 ea 0c 3d
       0.07670498 0.066135764 0.022827104 0.03440333
000040 34 ea ff 3c 50 3f 81 bb f0 d2 1c 3c 5a 88 87 3d
       0.031239606 -0.003944315 0.009571776 0.06617804
000050 3c f6 d4 bc c8 ca ff bc 90 79 8e 3d 56 f5 8d bd
       -0.02599632 -0.031224623 0.0695678 -0.0693156
000060 11 b5 08 bd d8 13 8d 3c 12 45 4e bd 88 65 89 bd
       -0.033375803 0.017221376 -0.05035884 -0.06708819
000070 b8 73 8e 3c c0 80 9c 3d ba 20 86 3d 12 8c a5 3d
       0.017389163 0.076417446 0.06549211 0.08083357
000080 c0 1b 91 bd 70 aa a4 3d 20 e1 68 3d d8 a9 6c bd
       -0.07085371 0.08040321 0.05685532 -0.057779163
000090 64 89 79 3d dc 25 81 bc 80 5b cb 3a 9e 79 a4 3d
       0.06092204 -0.015765123 0.001551494 0.08031009
0000a0 38 3e 61 3c fc 54 2b bd e9 20 52 bd 76 fc a0 bd
       0.013747744 -0.041829094 -0.051300917 -0.07860653
0000b0 b8 f1 b3 3c 52 61 63 bd 54 e2 8c bd 7e 29 89 bd
       0.021965846 -0.055512734 -0.06879106 -0.06697367
0000c0 c4 f2 94 bc ef d1 a5 bd 60 75 75 bd f4 13 09 bd
       -0.018182166 -0.08096682 -0.05992639 -0.033466294
0000d0 c0 9e 3e 3c cc 9b 6d 3d a0 cc ab 3c 00 18 f9 b9
       0.011634529 0.058009908 0.020971596 -0.00047510862
0000e0 7e d7 1b 3d 12 3a 7a bd 1c 34 8f 3d 80 60 b1 3c
       0.038047306 -0.061090536 0.06992361 0.02165246
0000f0 d5 3d 21 bd 0d 31 04 bd a6 1a 6b bd b4 13 6a 3d
       -0.03936561 -0.03227334 -0.05739846 0.057147697
000100 84 50 5e 3d 42 20 87 3d 92 75 a3 3d 58 97 84 bd
       0.054276004 0.065979496 0.07981409 -0.06474179
000110 e4 9b 56 3d d6 5b 9c bd 38 61 2f 3d 00 80 07 3a
       0.052394763 -0.07634704 0.042817324 0.0005168915
000120 38 e8 5c bd 53 97 83 bd b8 b6 67 3d 60 ba 34 bc
       -0.0539324 -0.06425347 0.05657074 -0.011030763
000130 d6 a3 82 3d 84 0a 89 3d 4a 91 a3 bd 70 97 99 3b
       0.063789055 0.06691459 -0.07986696 0.004687242
000140 80 07 7f bb e4 db 58 3d b0 7a a7 3c f8 51 a2 3d
       -0.0038914382 0.05294408 0.020444244 0.079257905
000150 10 d8 2a bc e8 34 3d 3d 1b 48 12 bd 36 0b 93 3d
       -0.01042749 0.046193033 -0.035713296 0.07179873
000160 3d 12 35 bd b2 9b 85 3d 79 46 3a bd cd 10 9e bd
       -0.044206847 0.06523837 -0.045477364 -0.07718048
000170 c6 20 5f bd aa bf 75 bd 64 b4 a5 3d ad 87 52 bd
       -0.054474615 -0.05999724 0.080910474 -0.05139892
000180 70 44 ad bb c4 18 81 3c e6 8f 89 3d a0 70 a6 bd
       -0.0052876994 0.01575888 0.067168996 -0.0812695
000190 70 4c ad 3b c0 ff 71 bd fa 8e dd bc 44 0a 46 bd
       0.005288653 -0.059081793 -0.027045716 -0.048349634
0001a0 48 9b 96 bd e8 dd a2 3d e0 69 79 3c 4a 09 47 bd
       -0.07353836 0.079524815 0.0152229965 -0.048592843
0001b0 c8 35 a7 3c e1 93 8c bd 04 f4 00 3d 95 9a 00 bd
       0.020411387 -0.06864143 0.03148271 -0.03139742
0001c0 98 3b 86 3c 76 f8 21 3d 40 c3 e4 bb 00 09 21 3c
       0.016385838 0.03954359 -0.0069812834 0.009828806
0001d0 b0 ee 59 3d 7a c4 90 3d 20 60 fc 3c 40 9c 48 bd
       0.053206146 0.07068725 0.030807555 -0.048977137
0001e0 1e e7 e5 bc a0 32 ad 3c be 63 5c bd f4 fb 83 3d
       -0.028064307 0.021142304 -0.05380606 0.064445406
0001f0 1e 42 a0 bd 9c 34 39 3d 07 60 a0 bd 81 54 a6 bd
       -0.07825111 0.045216188 -0.07830816 -0.081215866
000200 0e 86 91 3d b4 cb 64 bd 17 1f 98 bd c7 bf a5 bd
       0.07105647 -0.05585833 -0.07427805 -0.08093219
000210 f8 1d 82 3d 72 41 96 bd 9c fd 30 3d e2 93 1e 3d
       0.06353372 -0.073367015 0.04321061 0.03871525
000220 8a b2 06 bd 0c a7 2a 3d c0 e2 87 3d d6 c6 0d 3d
       -0.032885112 0.041663215 0.06635046 0.034613453
000230 80 62 fa 3a 90 07 7c bd e8 de 12 3c d0 e7 56 3d
       0.0019102842 -0.06153065 0.008964278 0.052467167
000240 e0 a1 2e bc 98 b1 84 3d c0 9d c4 ba 00 46 a5 3c
       -0.010658711 0.06479186 -0.0015000626 0.02017498
000250 48 b1 a4 bd 45 0a 2d bd ba eb fa bc b7 35 28 bd
       -0.08041626 -0.042246122 -0.030629981 -0.04106685
000260 7c a9 0a bd 34 a1 fd 3c f4 b8 c2 3c c0 70 a1 bc
       -0.03385304 0.030960657 0.023769833 -0.019707084
000270 10 02 a5 3d 88 74 8a 3d e0 8d 5e 3d c1 f7 6a bd
       0.08057034 0.06760508 0.05433452 -0.057365183
000280 fc a1 04 3d c0 9f 88 3a bc cf b6 3c 46 ce 93 3d
       0.032381043 0.0010423586 0.022315852 0.07217078
000290 6c e2 11 3d 18 07 15 3c 1e cd 84 bd 44 c6 5a bd
       0.035616323 0.00909593 -0.064844355 -0.053411737
0002a0 40 1e 3a 3d 72 b7 88 3d 40 b9 3e bb 30 83 05 3c
       0.045439005 0.066756144 -0.0029102117 0.008148953
0002b0 5c e7 6b 3d 1f 70 3d bd ff f0 1a bd 38 7e 19 3d
       0.05759369 -0.046249505 -0.037827488 0.037473887
0002c0 e2 af 09 3d 88 12 30 3d 6f 18 09 bd f4 14 a2 3c
       0.033615 0.042986423 -0.033470567 0.019785382
0002d0 9e 08 55 bd 87 fa 2f bd 68 e4 42 bc 68 c4 87 3d
       -0.05201017 -0.04296353 -0.011895277 0.066292584
0002e0 8c 36 91 bc 54 8d d8 3c f0 4f 38 3d 38 15 23 bc
       -0.017726205 0.026434578 0.04499811 -0.009953789
0002f0 8e 38 86 3d 1a ac a5 3d 3e bc bd bc a0 6b 0e 3c
       0.06553756 0.080894664 -0.02316105 0.008692652
000300 24 1f 6f 3d 81 64 56 bd 8e 82 41 bd 0e 31 97 3d
       0.058379307 -0.05234194 -0.047243647 0.07382403
000310 00 59 93 3b 27 28 0a bd 37 64 96 bd 94 b2 91 bc
       0.0044966936 -0.0337297 -0.07343333 -0.017785348
000320 6a 91 8a bd a0 68 4d 3c 6c e6 b5 3c 04 be c5 bc
       -0.06766017 0.012537152 0.0222046 -0.024138458
000330 a6 b3 4f bd 70 28 9f 3d 94 17 45 3d e4 7c 71 3d
       -0.050708435 0.07771385 0.04811819 0.058956996
000340 24 f1 8b bc d8 a6 fb 3c 00 57 cd b9 1c 87 7e 3d
       -0.017082758 0.030719206 -0.00039165467 0.06214057
000350 a4 c4 93 3d 63 b7 3a bd 56 7a 18 bd a0 53 8c bd
       0.072152406 -0.045585047 -0.037226044 -0.06851888
000360 c0 98 52 3d 83 4b 4a bd d0 78 34 bc 5a e2 a6 bc
       0.051415205 -0.04938842 -0.011015132 -0.020371605
000370 70 d7 c2 3b 5e c3 17 3d 76 36 02 3d f0 49 3a 3d
       0.0059460923 0.03705155 0.03179022 0.04548067
000380 54 c3 1b bd fa 0f 8a bd 0a 64 31 3d 8b c5 81 bd
       -0.038028076 -0.067413285 0.043308295 -0.063365065
000390 84 cf c6 3c 81 eb 4e bd ba 40 eb bc 33 79 59 bd
       0.024268873 -0.050517563 -0.028717387 -0.0530941
0003a0 92 dd a4 bc cf d5 23 bd 3f 1d a1 bd a4 a5 60 bd
       -0.020125184 -0.039998826 -0.078669064 -0.054845467
0003b0 c9 90 20 bd c0 96 8d bb 00 5f fa 3a ba 5a 90 3d
       -0.039200578 -0.0043209493 0.0019101799 0.07048555
0003c0 f8 d9 31 3d a0 04 fe 3b 3b 16 92 bd c4 12 3a 3d
       0.04342076 0.007752016 -0.071331464 0.045428053
0003d0 80 97 fa ba 95 d7 72 bd 14 d4 b8 3c 80 5a 68 3d
       -0.0019118637 -0.059287626 0.022562064 0.056726933
0003e0 c8 c7 ea 3c 20 43 55 3c 10 09 e0 3b 8c ee 30 bd
       0.028659716 0.013016492 0.006837018 -0.043196246
0003f0 00 ee 36 bd 3a 72 9c 3d 40 5f 45 3b b0 76 54 3d
       -0.04466057 0.076389745 0.0030116588 0.051871

conv2.bias f4 [16]
000000 72 53 24 3d 30 ca 15 3c 5a 3b 68 bd b0 90 be 3c
       0.040118642 0.009142444 -0.056697227 0.023262352
000010 f1 78 0d bd c8 44 71 3d 81 bb 94 bd b6 7a c5 bc
       -0.034539167 0.058903486 -0.07262326 -0.024106365
000020 98 dc 5e 3d 0b 92 79 bd 29 9f 75 bd b2 f2 e7 bc
       0.054409593 -0.060930293 -0.05996624 -0.028313968
000030 54 41 7e 3d 7c 34 2b 3d ea ad 84 3d 10 0d 1c 3c
       0.06207402 0.0417981 0.06478484 0.009524599

fc1.weight f4 [120, 400]
000000 c0 ae 3f ba 9b 91 20 3d 97 7a 37 3d c3 4d f1 bc
       -0.00073121116 0.03920136 0.044794645 -0.029456025
000010 d9 6e 47 3d d0 f4 31 bd 04 d7 00 bd 34 7d 7f bc
       0.048689697 -0.043446362 -0.031455055 -0.015593816
000020 8e 99 93 3c 27 40 24 3d 42 a8 dc 3c dd 7e 43 bd
       0.018017557 0.040100243 0.0269357 -0.047728408
000030 79 7a 3e 3d 5d aa d5 bc 12 5b be 3c 8c 0b 12 bc
       0.046503518 -0.026082212 0.023236785 -0.008913886
000040 c0 3d 7d bc 20 b4 8a bc 3d fa 9c bc 72 36 30 bd
       -0.015456617 -0.016931593 -0.019162292 -0.043020673
000050 a8 08 b6 bb 13 47 0a 3d 6c 2f 6b 3c 93 f0 22 bd
       -0.005555231 0.033759188 0.014354568 -0.03978021
000060 a2 1d 21 bd d8 25 b3 3b 65 19 19 bd 80 3e 8a bb
       -0.0393349 0.005467158 -0.037377734 -0.0042188764
000070 d1 0e 40 3d 98 cd c1 3b a0 6f dd 3a 9a 2c f0 bc
       0.04688913 0.0059144013 0.0016894229 -0.029318143
000080 ea c6 e2 bc 40 37 b4 bc a0 49 40 bb fa 22 0b bd
       -0.02768274 -0.021999002 -0.002934076 -0.033968903
000090 72 23 20 bd f3 7e 32 bd f4 f8 22 3c 5a d9 ce bc
       -0.039096303 -0.0435781 0.00994705 -0.025250126
0000a0 37 59 45 bd 30 25 ce 3b f6 72 f3 3c a3 2b 4b 3d
       -0.048180785 0.006291054 0.029717904 0.049602162
0000b0 81 5d 2f 3d 73 96 1c bd 50 b6 f3 3b a1 08 2f 3d
       0.04281378 -0.038229417 0.007437505 0.04273284
0000c0 d0 a3 9a bc 88 79 71 bc d1 e6 35 3d 03 88 3b 3d
       -0.01887694 -0.014738448 0.044409577 0.045784008
0000d0 51 b3 1e 3d 21 b3 24 3d 9b 26 3c bd ea 1e a7 bc
       0.03874523 0.040209893 -0.045935255 -0.020400483
0000e0 b2 f1 b1 3c 5a cf d5 3c 42 70 f6 3c 98 0b 18 bd
       0.021721695 0.02609985 0.030082826 -0.03712043
0000f0 ac 7f 58 bc 84 24 6a 3c de 96 16 bd 43 ad f1 bc
       -0.013214033 0.014290933 -0.036764972 -0.029501563
000100 b5 a8 02 3d 04 fe 6d 3c 1e db a0 3c 98 1f c2 3b
       0.031899173 0.014525894 0.019635733 0.0059241764
000110 19 42 45 3d 69 cf 00 3d 79 83 1b 3d 32 57 93 3c
       0.04815874 0.0314478 0.03796718 0.017985914
000120 8c a1 10 3c 97 c3 fb bc 3d 1f f7 bc b0 5d cf bc
       0.008827578 -0.030732913 -0.030166263 -0.025313228
000130 53 13 e7 bc 3d a3 04 bd 80 1d 39 3a b0 bd c9 3b
       -0.028207457 -0.03238224 0.0007061586 0.0061566457
000140 80 35 7b 3a e4 d5 8e bc 08 9e 12 3c 95 d2 00 bd
       0.0009582862 -0.017435975 0.00894881 -0.031450827
000150 a2 e6 e1 3c 07 eb 9b bc 76 81 9e 3c c7 b6 e5 bc
       0.027575795 -0.019032968 0.019348841 -0.028041257
000160 e8 f5 cf bb b3 e3 db bc ff 51 0b 3d ec 2e 68 3c
       -0.006346453 -0.026841974 0.034013744 0.014171343
000170 0c e4 4a bc bf 48 3c bd 8c 55 19 3c d3 60 00 3d
       -0.012383472 -0.045967814 0.009358775 0.03134234
000180 63 59 c0 bc e8 3b 5d bc b0 81 a5 bb a9 83 43 3d
       -0.023480123 -0.013503052 -0.0050508603 0.047732983
000190 c7 d1 e4 bc 22 20 99 3c f2 03 99 3c 60 9b 47 bb
       -0.02793206 0.01869208 0.01867864 -0.00304576
0001a0 28 18 28 3c a1 cb 2c 3d 79 cd 38 3d 4c 3f 58 3c
       0.010259666 0.042186383 0.04511783 0.013198685
0001b0 cc 6b 59 3c 16 7e d9 3c 5d 57 27 3d 8d e5 0b bd
       0.01327033 0.02654938 0.0408548 -0.034154464
0001c0 2d 63 23 3d bc 17 97 bc 52 4b d7 3c 7c 9e 90 bc
       0.039889503 -0.018443935 0.026281033 -0.017653696
0001d0 47 05 a3 bc b8 d9 11 3c d8 56 a7 3b d3 1d ae bc
       -0.019899977 0.008902006 0.005106788 -0.021254456
0001e0 d0 25 04 3b d8 70 6c bc d8 e8 8a 3b 95 e0 02 3d
       0.002016414 -0.014431201 0.004239183 0.03195246
0001f0 94 93 6d bc 4c a4 32 bc 3b f7 1b bd 3b b7 29 bd
       -0.014500517 -0.010903429 -0.038077574 -0.041434508
000200 20 15 17 bb b6 83 b9 3c 6b e5 0d bd 52 26 ca 3c
       -0.0023053363 0.022645812 -0.03464262 0.024676476
000210 2a 28 88 bc c3 ab f3 bc 40 7c 81 ba b7 36 25 3d
       -0.016620714 -0.029744988 -0.0009878948 0.040335383
000220 35 6d 36 3d 93 f9 13 3d 2a cc b3 3c 03 cd cd bc
       0.04453774 0.036126684 0.021947939 -0.025122171
000230 00 a2 43 b9 9b 7d 1a bd 41 7c 30 3d ac 26 02 3c
       -0.00018656999 -0.037717443 0.043087248 0.00794379
000240 2c 94 63 3c fe 99 a7 3c 42 ec ce 3c 27 97 38 3d
       0.013890307 0.020459171 0.02525914 0.045066025
000250 34 58 68 3c ba d4 c0 bc de 92 c7 3c b9 8d 42 3d
       0.0141811855 -0.023538936 0.024362024 0.04749844
000260 f2 c5 fb 3c 72 bc c1 3c 14 09 26 bc 66 77 c7 3c
       0.030734036 0.023649428 -0.010134 0.024348926
000270 bf ea 35 bd 73 94 f3 bc cd b3 e4 bc ba 67 4b bd
       -0.044413324 -0.029733872 -0.027917767 -0.04965947
000280 c0 ae 41 bd 44 6f 70 3c 74 63 5f 3c 2e 34 ed 3c
       -0.047285795 0.014674965 0.013634551 0.028955545
000290 e4 07 58 3c 40 81 f3 bc e9 8d 00 3d 0e aa 01 bd
       0.013185475 -0.029724717 0.031385336 -0.031656317
0002a0 dd 94 0a 3d 87 a6 29 3d 3a 3b 85 bc 78 b1 01 bd
       0.033833373 0.04141858 -0.016263593 -0.031663388
0002b0 14 14 22 bc cd 6c a0 bc c8 54 1e bd 4e aa cd 3c
       -0.009892482 -0.01958313 -0.038655072 0.025105622
0002c0 ea 55 2e bd 17 f8 e7 bc c0 fa 8d 3a 08 c2 06 3c
       -0.042562403 -0.02831654 0.0010832176 0.008224972
0002d0 d7 78 ac bc 74 39 88 bc 0d 82 20 bd 62 65 e1 3c
       -0.021053715 -0.016628958 -0.039186526 0.027514163
0002e0 ed 17 e4 bc 8e 33 e5 3c 30 3c ed bb 88 a2 54 bc
       -0.02784344 0.027978685 -0.007239841 -0.012978204
0002f0 6e 82 09 bd 3a 68 17 bd 7d 42 42 3d b0 2e ee bb
       -0.033571653 -0.036964633 0.04742669 -0.007268749
000300 c9 11 24 3d 00 ab 38 39 66 75 18 bd c7 cd d0 bc
       0.040056024 0.0001761131 -0.037221335 -0.025488747
000310 1a 1b 0e bd 8d 8d 1f bd ae 22 1d bd b7 55 49 bd
       -0.034693815 -0.038953353 -0.03836315 -0.04915401
000320 26 1f f1 3c 0d c1 a2 bc 40 94 d1 3b e8 cd 26 bc
       0.029433798 -0.019867444 0.0063958466 -0.010180928
000330 8a 90 94 3c b2 d2 b0 3c 80 68 ca bb 0d 3a bd bc
       0.018135328 0.021584842 -0.006177008 -0.02309897
000340 42 e4 83 3c 54 37 6a bc d0 cb 81 3b 74 a6 73 3c
       0.016100053 -0.014295418 0.003961064 0.0148712285
000350 28 04 56 bc 21 5b 4c 3d c3 33 e2 bc d7 f3 d2 bc
       -0.013062514 0.049891595 -0.027612573 -0.025751038
000360 bb 62 28 3d 01 f1 49 3d 61 6c 14 3d 5a 4a f0 bc
       0.04110978 0.049302105 0.03623617 -0.029332329
000370 d6 f3 95 bc 2b a7 23 3d be e3 f0 3c 50 50 fb bb
       -0.018304747 0.039954346 0.029405471 -0.007669486
000380 db 3e 39 bd c2 df 8a 3c 0b 7f 20 bd 8c 82 08 bc
       -0.04522596 0.0169524 -0.039183658 -0.008331906
000390 f7 d9 f5 bc 80 1b 15 bc 30 b9 78 bb 0b cf 15 3d
       -0.03001116 -0.009100795 -0.0037952177 0.036574405
0003a0 0a 7b ba bc 20 75 dd bc a4 44 6e 3c 57 06 fd bc
       -0.022763748 -0.027033389 0.014542732 -0.030886812
0003b0 40 00 f7 bc 5c ac 03 bd 72 3a 2a bd f8 6c 43 bc
       -0.030151486 -0.032146797 -0.041559644 -0.011927836
0003c0 7e e8 b7 3c 28 ac af bb 18 57 cf 3b 22 c6 48 bd
       0.022449728 -0.005361099 0.006327521 -0.04901708
0003d0 b7 05 47 bd 0d 22 aa bc 06 e2 d7 3c 6a 37 db 3c
       -0.048589434 -0.02076819 0.026352894 0.026759822
0003e0 a1 d1 44 3d 94 ef 80 bc 8a 0b a0 3c 82 9b 3c bd
       0.04805148 -0.01573924 0.019536752 -0.04604674
0003f0 f9 ff 1f 3d ac 80 4b 3c c0 d6 b6 3b 40 50 b5 bb
       0.039062474 0.0124208145 0.0055797994 -0.005533248

fc1.bias f4 [120]
000000 9e 70 df 3c d0 72 04 3b 60 97 73 bc 86 df 80 3c
       0.02727538 0.0020210035 -0.014867634 0.015731584
000010 a4 2f 74 3c 9d 6d 2f 3d dc f7 81 bc 40 a2 33 3c
       0.014903937 0.042829145 -0.015865259 0.010963976
000020 02 90 04 bd cb 06 3d 3d 6b 8b 35 3d 09 9a 29 3d
       -0.0323639 0.046149056 0.044322412 0.041406665
000030 58 9c 01 bc 9a 07 bb 3c 71 03 09 3d 13 00 0d bd
       -0.00791081 0.022830773 0.033450548 -0.0344239
000040 7b 43 3b 3d 09 7d 25 3d 62 aa 3b bd 44 62 87 bc
       0.04571865 0.040402446 -0.045816787 -0.016526349
000050 a0 0d f8 bc 08 a5 06 3c 96 3a 03 bd 46 91 e0 3c
       -0.030279934 0.008218057 -0.032038294 0.027413022
000060 a0 fa 92 bc 55 9a 35 bd 20 8f 23 bc 8e 2f 8f 3c
       -0.017941773 -0.044336636 -0.009982854 0.01747873
000070 da 1b 97 3c 6c be 61 bc 01 84 0a 3d d5 2d 2d 3d
       0.018445898 -0.01377831 0.033817295 0.042280037
000080 80 24 29 3a f0 90 b5 3b 6c b7 2b bc 1a e0 97 bc
       0.00064522773 0.0055409595 -0.010480743 -0.018539477
000090 89 98 2a 3d c2 24 8b 3c d0 fb 87 bc dd a2 f5 bc
       0.041649375 0.0169853 -0.016599566 -0.029984886
0000a0 13 f0 3f 3d 75 c3 0a bd 7e 5a fc 3c 51 31 1a 3d
       0.046859812 -0.03387781 0.030804869 0.037644688
0000b0 50 f3 b8 bb 11 d0 35 3d cc c4 08 bd 68 22 2c bd
       -0.0056442395 0.04438788 -0.033390805 -0.042025
0000c0 dd 0a a2 bc 00 e7 0f bb 30 07 9f bb e1 5c 22 3d
       -0.01978057 -0.0021957755 -0.0048531517 0.039639357
0000d0 c4 77 5a 3c 02 60 85 3c 2f 7b 3f bd 32 b9 a2 3c
       0.013334218 0.016281132 -0.046748336 0.019863699
0000e0 2f 83 25 3d ea 04 4a bd 39 b6 38 3d 14 4c 09 bc
       0.04040831 -0.049321093 0.045095656 -0.008379955
0000f0 92 8f f4 3c 70 74 f5 bc 84 3c 09 bd 48 7f 2e 3c
       0.029853616 -0.029962748 -0.033504978 0.010650463
000100 15 80 35 3d 40 dd 08 bc 4c d5 2e bc 5f 65 49 bd
       0.0443116 -0.008353531 -0.010670971 -0.04916894
000110 a6 dd d4 3c f5 d9 0b 3d c5 a3 47 3d 44 83 61 3c
       0.025984596 0.034143407 0.048740167 0.013764206
000120 d5 c3 0c 3d 00 9e ef bc 54 56 43 3c 66 3f a7 3c
       0.034366447 -0.029250145 0.011922438 0.020415973
000130 8a 0b b0 3c 00 f1 e8 bc 40 fb 02 ba 6d 83 28 3d
       0.021489877 -0.02843523 -0.00049965456 0.041140962
000140 0a 52 8c 3c 3d c1 12 3d 4a 3d e2 3c dd 97 14 bd
       0.017128963 0.035828818 0.027617116 -0.03627764
000150 ec b0 8e bc 4d 51 32 bd d8 d9 f9 bb 90 45 c7 bc
       -0.017418347 -0.043534566 -0.007624846 -0.024325162
000160 9d 36 22 3d 72 58 f4 3c 57 9e 34 bd 73 0d 13 3d
       0.039602865 0.02982733 -0.044096317 0.035901498
000170 00 5a 3f ba d9 e7 3f 3d 25 db 4a bd 02 36 c7 3c
       -0.0007299483 0.046851967 -0.0495254 0.024317745
000180 97 eb 00 3d d4 e5 20 3c 64 e1 56 3c 21 be 05 3d
       0.031474676 0.00982042 0.013115261 0.032652024
000190 de b6 f3 3c 68 29 1e bc f9 6b 3a 3d 23 07 1a bd
       0.029750284 -0.009653427 0.045513127 -0.037604462
0001a0 ea 00 a9 bc 61 94 00 3d 90 bf fa 3b d1 00 1f 3d
       -0.020630319 0.031391505 0.0076522306 0.038819138
0001b0 80 ef 71 3a 89 e9 28 3d 70 de 2c bd 06 d6 8c bc
       0.00092291087 0.04123834 -0.04220432 -0.017191898
0001c0 d5 de 07 3d da c3 c6 3c 08 59 03 3c 76 11 8e 3c
       0.033171494 0.024263311 0.008016832 0.01734231
0001d0 b0 0e 3b bb bc 8d 53 3c 17 96 fc bc 50 cd 3c bb
       -0.002854269 0.01291221 -0.030833287 -0.00288089

fc2.weight f4 [84, 120]
000000 1e 5d ba bd 00 c8 15 3b 61 42 b3 bd 60 62 5e 3c
       -0.09099792 0.0022854805 -0.08752895 0.013573259
000010 60 8f a6 3d d0 61 9c 3d 00 30 25 3c f4 e2 73 3d
       0.08132815 0.07635844 0.010082245 0.05954261
000020 8e 07 aa 3d 1a 4c 03 bd 70 2e e0 3c 08 e8 56 3d
       0.08302222 -0.032054998 0.027365893 0.052467376
000030 58 10 18 3c 58 3f ae 3d 18 10 85 3c 90 ee a4 3d
       0.00928124 0.085081756 0.016243026 0.08053315
000040 f0 d9 93 bb 03 01 41 bd 30 ab 69 bd 08 db bf bc
       -0.004512064 -0.047120105 -0.057048023 -0.023419872
000050 c0 7c 39 bb ec 27 34 3d cc d0 8d 3d 00 fa b1 ba
       -0.0028303117 0.043983385 0.069245905 -0.0013578534
000060 d4 d6 d8 bc da ef 80 3d 04 c9 14 bd e8 97 b8 3d
       -0.026469626 0.06295748 -0.036324516 0.09013349
000070 b6 01 1e bd d6 a2 7e bd 36 e2 ad bd de ee a0 bd
       -0.03857585 -0.06216701 -0.08490412 -0.0785806
000080 24 ff 2e 3d c2 a2 83 3d 76 c0 9c 3d 98 b4 6c 3d
       0.04272379 0.06427528 0.076538965 0.057789415
000090 1f e9 91 bd 74 6b 1c 3d 98 a3 41 bd b0 bc 32 3d
       -0.071245424 0.038188413 -0.047275156 0.043636978
0000a0 37 2a b7 bd 05 aa 95 bd cc 00 76 3d 38 57 0c 3c
       -0.08943599 -0.07307819 0.060059354 0.008565716
0000b0 a6 b2 a0 3d f9 8d 0c bd 98 67 3a bc d4 fe 8f bc
       0.078465745 -0.034315083 -0.011377238 -0.017577566
0000c0 e8 6f f4 3c 3a f9 95 3d c4 b3 9f 3c 08 2d 1a bc
       0.029838517 0.07322927 0.019494899 -0.00941015
0000d0 60 6e 5b bc c1 e6 07 bd e0 cd 80 bc 54 5d 6a 3d
       -0.013393015 -0.03317905 -0.015723169 0.05721791
0000e0 f0 e5 69 3c 5a bc a1 bd 90 54 a1 bd ba 3e 82 bd
       0.014276013 -0.07897253 -0.07877457 -0.063596204
0000f0 90 65 7c 3d 40 a4 42 bd d8 42 71 3d 4e fc 06 bd
       0.061620295 -0.047519922 0.058901638 -0.03295546
000100 b0 4e 8b bb 60 18 7a bc 1a b5 91 3d 31 02 b2 bd
       -0.0042513236 -0.0152646005 0.071146205 -0.08691824
000110 62 1f b1 bd 18 ef 74 3d a0 1a d0 bb 88 5f 40 3d
       -0.08648564 0.05979833 -0.00635083 0.046966106
000120 b8 89 92 bd 5c a0 c7 3c c4 eb ff bc cb 18 8e bd
       -0.07155174 0.024368457 -0.031240351 -0.06938323
000130 84 78 b9 3c 8d ad 15 bd f8 8f c8 3c 52 a3 90 bd
       0.022640474 -0.036542464 0.024482712 -0.07062401
000140 70 0d be bb 03 dc 0d bd ac 50 4d 3d 66 8b a1 bd
       -0.0057999417 -0.034633648 0.050125763 -0.07887916
000150 10 2b c6 bc 34 ed af 3d d0 8b e5 3b 70 da 7e 3c
       -0.024190456 0.08590165 0.0070051923 0.015555009
000160 e6 0c 98 3d 80 7c 22 3d 80 73 72 3b 3d 2c 50 bd
       0.07424335 0.039669514 0.0036995113 -0.05082344
000170 6c 4c 85 bc e8 e0 37 bc aa 8d 8e 3d 28 14 4d 3d
       -0.016271792 -0.011223055 0.06960614 0.05006805
000180 a4 bd 9a 3c 10 1f a7 3b 80 36 3b ba 3c 28 81 3d
       0.018889256 0.0051001385 -0.0007141605 0.06306502
000190 c8 8e b7 3d c0 64 6e bc a3 d3 b4 bd 46 ee 8d 3d
       0.0896278 -0.014550388 -0.08829429 0.06930213
0001a0 d0 dc c4 3c 58 d1 8e 3d a5 05 61 bd 90 12 76 bd
       0.024031073 0.06973523 -0.054937024 -0.060076296
0001b0 10 1e 84 bb 5a bf 00 bd 14 66 94 bd c8 28 99 bd
       -0.004031904 -0.031432487 -0.07246032 -0.074784815
0001c0 48 72 b9 3c 20 fb 82 bc 20 aa 8e 3d 94 31 9b 3c
       0.022637501 -0.015988886 0.069660425 0.01894454
0001d0 78 67 59 bd c0 e9 23 bb 5c dc 6c 3d 8c 68 fe 3c
       -0.05307719 -0.0025011152 0.05782734 0.031055711
0001e0 cc 18 96 bc f4 44 57 3d 34 16 6f 3d 58 7f 44 3c
       -0.018322371 0.052555993 0.058370784 0.011993252
0001f0 b0 97 84 bc bc e0 d0 3c c0 32 43 bb 5c 19 b0 bc
       -0.016185611 0.025497787 -0.0029784888 -0.021496467
000200 56 09 ed bc 98 5a 82 bd 7e b6 af bd 32 b3 1b bd
       -0.028935116 -0.06364936 -0.085797295 -0.03801269
000210 a4 60 b1 bd 28 e3 82 bd 88 06 0f bc 81 a1 b5 bd
       -0.08661011 -0.06390983 -0.0087295845 -0.08868695
000220 a0 60 06 3d 20 06 62 3d f0 20 bb 3b 10 eb 20 3d
       0.032806993 0.055181623 0.0057107136 0.039286673
000230 b0 96 b9 3d 44 f6 80 bc 38 3f 02 bc 20 6b 29 3c
       0.090619445 -0.015742429 -0.007949643 0.010340482
000240 9a f8 81 3d 06 90 97 3d 50 4b 97 bb c5 85 89 bd
       0.06346245 0.07400517 -0.0046171322 -0.06714968
000250 58 60 b2 bc f0 bc e0 bc 84 85 87 bd b2 63 a2 3d
       -0.021774456 -0.027433842 -0.06617263 0.079291716
000260 d5 1b b1 bd 30 1a 0e 3d 50 33 5b 3c f8 05 2a bd
       -0.08647887 0.034692943 0.013378933 -0.0415096
000270 b8 c6 11 3c 82 4a 28 bd da bc 87 3d 34 3a b5 3d
       0.008897476 -0.04108668 0.066278175 0.08848992
000280 78 b1 07 3d 30 43 2f 3c f8 dd 26 bc a6 2f a5 bd
       0.03312823 0.010697171 -0.010184757 -0.08065729
000290 bc e6 7f 3d d8 11 eb 3c c4 66 95 3c 00 2c 41 b9
       0.062475905 0.028695032 0.018237479 -0.00018422306
0002a0 7c 91 04 bd f4 6a 3a 3d 50 03 af 3d ae 74 b9 3d
       -0.032365307 0.045512155 0.08545554 0.09055458
0002b0 20 a8 b3 3d 26 44 b0 3d 21 64 6f bd 9e 09 05 3d
       0.08772302 0.08606748 -0.0584451 0.032479875
0002c0 20 23 52 3d 2a 53 8e 3d 64 17 75 3d f8 fd 0c 3d
       0.05130303 0.06949456 0.05983676 0.03442189
0002d0 3c 51 2b 3d 00 e6 06 bc 04 27 07 3d b8 02 3a 3d
       0.041825518 -0.008233547 0.032996193 0.04541275
0002e0 40 29 7d 3d 11 c0 50 bd 78 73 0c 3d 20 c5 05 3b
       0.061806917 -0.05096442 0.034289807 0.0020411685
0002f0 20 e7 02 bb 7c 4f 4a 3d d0 a4 1d bd 90 14 ee bb
       -0.0019974187 0.04939221 -0.038487256 -0.007265635
000300 d9 cf b8 bd 9e 6c ec bc 1f 93 88 bd dd 9e b0 bd
       -0.09024019 -0.028860386 -0.06668686 -0.08624051
000310 c0 e9 7e bc 4a ad a8 bd e0 bc 76 3d 00 68 7d bc
       -0.01555866 -0.08236177 0.06023872 -0.01546669
000320 5c 6f 5e bd 30 2f af bc e4 00 8b bc 88 5d 0c 3d
       -0.05430542 -0.021384805 -0.016968198 0.034268886
000330 6a 59 22 bd 4a b6 94 3d 00 fc 9e 3d f9 bd 20 bd
       -0.039636053 0.072613314 0.07762909 -0.039243672
000340 78 80 1d 3d 5c 32 76 3d 46 0e a3 bd 3c 65 13 3d
       0.038452595 0.06010662 -0.07961707 0.035985216
000350 78 94 3e 3c 1f 45 b7 bd 6a 08 9a 3d af 55 0d bd
       0.011632077 -0.08948731 0.07521136 -0.034505542
000360 d3 55 35 bd 22 40 8e 3d 3a 8f 02 bd fc 02 98 3d
       -0.0442713 0.06945826 -0.031874873 0.07422444
000370 00 96 2c 3b 9f 67 4c bd a0 91 4b 3d e0 29 24 3b
       0.0026334524 -0.04990351 0.049699426 0.0025049374
000380 e0 86 38 3d 5a 10 97 bd d0 66 c3 3c 5f 24 24 bd
       0.0450505 -0.07376166 0.023852736 -0.04007375
000390 b4 c3 8e bc 10 55 90 3d 08 e5 91 bd 20 02 9f 3c
       -0.017427303 0.070474744 -0.07123762 0.019410193
0003a0 48 84 8b 3d 0c f5 41 bd 48 e5 71 3c 68 f8 6b 3d
       0.0681234 -0.047352836 0.014764138 0.057609946
0003b0 08 d0 f7 3c 9c eb ae bd 14 d9 a8 3c bd 69 b2 bd
       0.030250564 -0.08541033 0.020611323 -0.08711574
0003c0 b1 c9 4e bd ec 8e 39 3d d4 00 4d 3d 50 b9 92 bd
       -0.050485317 0.045302317 0.050049618 -0.07164252
0003d0 30 f8 78 3d d8 e4 7b bc 20 67 a8 3c ae 20 98 3d
       0.060783565 -0.015374385 0.020556986 0.07428108
0003e0 80 fc eb 3c 60 7e 28 3b d8 53 8b 3d 97 1f 84 bd
       0.028806925 0.002571009 0.06803101 -0.06451338
0003f0 64 b5 ba bc 38 61 84 3d 49 0e 50 bd 80 f9 36 3d
       -0.022791572 0.064638555 -0.050794873 0.044671535

fc2.bias f4 [84]
000000 9e 57 98 3d cf 45 9e bd 02 24 f9 bc 60 17 98 bb
       0.07438587 -0.07728159 -0.030412678 -0.0046414584
000010 c8 27 10 3d 10 b4 a9 3d 74 93 7a 3d 29 ac 40 bd
       0.03519419 0.08286297 0.06117578 -0.047039185
000020 30 8d 09 bc f5 85 6e bd de a0 8d bd ca e6 83 bd
       -0.008395478 -0.05823322 -0.069154486 -0.06440504
000030 20 1e 6b 3b e6 f4 ae 3d b4 98 4e 3d 88 3a 6e 3d
       0.003587611 0.085428044 0.050438598 0.05816129
000040 31 6e 41 bd b0 93 b8 bd c4 da 4b bd 7e e9 a9 3d
       -0.047224227 -0.09012544 -0.049769178 0.08296488
000050 63 bb 36 bd e7 da 60 bd db 85 63 bd 0c b1 b8 3c
       -0.0446123 -0.05489626 -0.055547576 0.02254536
000060 6a 7a 98 3d 80 27 b4 3d a0 d7 2e 3c f2 8e 88 bd
       0.07445224 0.087965965 0.010671526 -0.0666789
000070 72 f9 aa 3d 98 ac 90 3d 54 58 2a 3d dc 07 41 bd
       0.08348359 0.0706417 0.041588143 -0.047126636
000080 e2 bb b9 3d c0 d1 7d bb 1f 99 5d bd 40 03 fc bb
       0.09069039 -0.0038729757 -0.054101106 -0.007690817
000090 d2 71 a1 bd 60 98 41 3d b0 33 a5 bd 40 af a2 3b
       -0.078830376 0.047264457 -0.08066499 0.004964739
0000a0 b6 3d 8f bd f0 96 a7 3b b0 2e 80 bd fe 48 81 3d
       -0.06994192 0.0051144287 -0.06258905 0.0631275
0000b0 8b f2 63 bd 5c d3 83 3d 18 25 53 bd be cd 89 3d
       -0.05565123 0.06436798 -0.051549047 0.06728695
0000c0 37 bb b6 bd 74 dc ba 3d 88 97 32 bc 38 e5 82 3d
       -0.08922427 0.09124079 -0.010900386 0.06391376
0000d0 48 52 89 3d b6 af a7 3d a1 3b 6e bd 45 f6 09 bd
       0.06705147 0.08187811 -0.058162335 -0.033682127
0000e0 58 42 34 3d a0 1e 9f 3c 78 a2 9d 3d a8 65 1a bd
       0.044008583 0.019423783 0.07697004 -0.037694603
0000f0 86 dc 9e 3d b4 09 77 3d e0 54 b0 bc 80 b4 9b 3d
       0.07756905 0.060311988 -0.021524847 0.07602787
000100 bc 05 c0 3c 94 eb 64 3d bc 92 8d 3c 70 54 5e bc
       0.023440234 0.055888727 0.017281882 -0.013569936
000110 d0 5e 54 bc 02 d8 a8 3d c3 92 88 bd 48 fc fa 3c
       -0.012962058 0.08244325 -0.066686176 0.030637875
000120 a2 51 b4 bd 92 5b af 3d 80 77 ab bd 1c a1 b5 3d
       -0.08804633 0.085623875 -0.08372402 0.0886862
000130 10 3a 9a 3b c2 4e 45 bd c8 d5 9a 3d df 6b a3 bd
       0.0047066286 -0.048170812 0.07560307 -0.07979559
000140 0a 10 b3 3d e8 2f ad 3d d4 cc 80 3c 4c 64 1c 3d
       0.087432936 0.08456403 0.01572267 0.038181588

fc3.weight f4 [10, 84]
000000 41 66 87 3d 85 bd a3 3d 70 3f 76 bc cc bc f7 3c
       0.066113 0.07995132 -0.015029773 0.030241393
000010 43 b2 bc 3d 8b 40 6e bd e6 f2 4f 3d 9c dd 96 bd
       0.09213688 -0.05816702 0.050768755 -0.073664874
000020 27 ae 6f bd e8 20 80 bd 7d ac b0 3d 2c ab e7 3c
       -0.058515694 -0.06256276 0.086266495 0.028279863
000030 a5 d7 95 3d 60 d4 dc bd 61 a9 8b bd 76 77 40 3d
       0.073165216 -0.10782695 -0.06819416 0.046988927
000040 68 7d 64 3c d6 60 2d bd 6d a1 dc bd 4c 67 cd 3c
       0.013945915 -0.042328678 -0.10772977 0.02507367
000050 02 78 21 bd 72 59 49 3d 3f b6 9b 3d 6c 5a d1 bc
       -0.03942109 0.049157567 0.0760312 -0.025555812
000060 9a 60 13 3d 2b 11 c6 3d f0 de fa 3b 77 4e b8 bd
       0.0359808 0.09671243 0.0076559708 -0.08999341
000070 29 eb bc bd 18 6d ba bc 4f bd cc 3d 21 29 b3 3d
       -0.09224541 -0.022757098 0.09997045 0.08748079
000080 62 57 19 bd 82 b1 23 3d a1 eb ca bd a9 db ba 3d
       -0.03743685 0.039964207 -0.09908224 0.09123928
000090 f2 b5 7d 3d ab 1a ba bd 48 7e bc bc fe 3e 54 3d
       0.061941095 -0.09087118 -0.023009434 0.051817887
0000a0 64 f0 0c bd cd f5 c2 bd 90 23 8d 3b 4a 14 8f bd
       -0.034408942 -0.09519539 0.004307218 -0.06986292
0000b0 c0 d3 38 bb 1f bc 86 bd 18 c9 17 bd 94 48 ef bc
       -0.0028202385 -0.0657885 -0.037057012 -0.029209413
0000c0 70 15 a6 bb 59 4a cc bd 3e 5e 6b bd d6 34 dc bd
       -0.0050684735 -0.09975118 -0.057462923 -0.10752265
0000d0 e0 73 bb bd e6 d7 49 bd be 49 0b bd 1b c1 dd bd
       -0.09152961 -0.049278162 -0.034005873 -0.108278476
0000e0 00 18 0a bc a2 b8 4e 3d 44 62 87 bc 02 47 1f 3d
       -0.008428574 0.05046905 -0.016526349 0.038886078
0000f0 29 12 88 3d a0 7a de bd 44 81 f8 3c f9 4c d8 3d
       0.06644089 -0.108632326 0.030335076 0.10561556
000100 30 68 1c 3c cc ec 90 bd d4 0f f0 3c 28 14 90 bd
       0.009546325 -0.070764154 0.029304422 -0.070350945
000110 d0 bb 07 3c 90 bb a0 bd ca 16 4e 3d b9 39 c1 bd
       0.008284524 -0.07848275 0.050314702 -0.09434838
000120 5d 3f d2 bd a4 5f fb bc e8 d1 b6 bc 78 c3 8e bd
       -0.10265992 -0.030685253 -0.022316888 -0.069708765
000130 de 06 0f 3d 26 36 07 3d 74 f0 88 3c 4d ec 89 3d
       0.03491866 0.033010624 0.01671622 0.06734524
000140 bb 67 aa 3d 4b 27 55 bd bf 0f 97 3d c2 b7 32 3d
       0.08320566 -0.052039426 0.0737605 0.043632276
000150 8d cf ba bd 3e 29 11 bd 54 a9 85 bd 61 45 8d 3d
       -0.091216184 -0.035439722 -0.065264374 0.068979986
000160 b4 cb 96 bc 66 91 79 3d cf f2 d2 3d ae 3a 2c bd
       -0.01840768 0.06092968 0.10300218 -0.04204815
000170 86 79 0e bd 24 86 9f 3c da c4 2d 3d ae d1 12 3d
       -0.034783863 0.019473143 0.04242406 0.035844497
000180 38 0f 78 bc 66 a0 79 3d 71 fd ca bd ca 73 6e 3d
       -0.015140347 0.060943983 -0.09911621 0.058215894
000190 a2 33 30 bd 38 5a 94 bd aa 4d 69 bd 9d d8 a0 bd
       -0.04301799 -0.0724377 -0.05695883 -0.07853816
0001a0 58 49 38 bd b0 86 23 bd 45 bd d9 3d 03 ea 96 3d
       -0.04499182 -0.03992337 0.106318034 0.07368853
0001b0 e5 c9 a9 3d 09 ac 8a 3d f4 53 cd bd 46 2c 9a bd
       0.082904615 0.06771094 -0.100257784 -0.07527976
0001c0 59 9f b1 3d 54 de d0 3c 09 72 cb 3d f4 3f c4 3c
       0.08672971 0.02549664 0.0993386 0.023956276
0001d0 bf 50 be 3d dc ee b5 3c d6 92 77 bd ac e8 c7 bc
       0.09292745 0.022208624 -0.060442768 -0.024402939
0001e0 78 64 4a bd 4e 7e 46 3d e2 8e 64 3d 4b 29 8d 3d
       -0.04941222 0.048460297 0.055800326 0.06892642
0001f0 a8 a6 97 bd f5 22 89 3d 47 6e d8 3d 57 50 8c 3d
       -0.07404834 0.06696121 0.10567909 0.06851261
000200 f3 4b a2 bd 57 56 d8 3d a6 55 47 3d 40 e1 59 bc
       -0.079246424 0.10563343 0.048665665 -0.013298333
000210 14 34 e2 3c 10 f7 bb bd cf da 88 bd c2 a0 4d bd
       0.027612723 -0.09177983 -0.066823594 -0.05020214
000220 8a 8f 1d 3d 6b 68 a2 3d f0 c3 30 bd 8c 40 b4 bc
       0.038466968 0.079300724 -0.04315561 -0.022003435
000230 86 9e 35 3d 18 bb c7 bc 65 71 a4 bd 38 ba a6 bd
       0.044340633 -0.024381205 -0.08029441 -0.08140987
000240 17 8d 70 bd 94 3d 2d bd d5 09 83 bd 04 2f 59 bd
       -0.058728304 -0.042295054 -0.0639836 -0.053023353
000250 44 99 b4 3c 55 6b ab 3d 04 91 eb 3c 6a cf 51 3d
       0.022045739 0.08370081 0.028755672 0.051223196
000260 54 20 0b bd 84 ad 92 bc 63 46 9a 3d 68 84 2c bc
       -0.033966377 -0.017905004 0.075329565 -0.010529615
000270 d6 81 78 3d 4f 64 ca 3d f8 7a 17 3c 2a 92 28 3d
       0.060670696 0.098824136 0.009245627 0.041155018
000280 20 9d 35 bc 50 50 a9 3b 9a b4 6c bd 1e 16 12 bd
       -0.011084825 0.0051670447 -0.057789423 -0.035665624
000290 fb 57 dd bd 13 56 80 bd 0b 9e 97 3d 60 13 18 3c
       -0.108077966 -0.06266417 0.07403191 0.009281963
0002a0 96 13 b3 bd dc 36 81 bc 85 cb a2 3d b6 8c 6f bd
       -0.0874397 -0.01577323 0.079489745 -0.0584838
0002b0 81 e3 86 3d 00 ef b9 3b 61 4a 72 bd 0e 74 1b 3d
       0.06586362 0.005674243 -0.059152965 0.037952475
0002c0 ce 76 6b 3d a1 b3 d9 3d b6 d1 bd bd c2 bb 3b 3d
       0.057486348 0.106299646 -0.09268515 0.045833357
0002d0 07 36 ba bd 26 8c 01 3d c8 aa 83 bd 16 2c c7 bd
       -0.09092336 0.031627797 -0.06429058 -0.097252056
0002e0 f2 e8 86 bd a0 71 37 bd 6b 93 9a 3d 60 1d 99 bd
       -0.065873995 -0.044786096 0.07547649 -0.07476306
0002f0 5e e7 1c 3d 7d 84 ae 3d a5 61 76 bd be 94 37 3d
       0.038306586 0.08521364 -0.060151715 0.044819586
000300 4f 79 94 3d 44 de 9a bc ea eb 31 3d 90 af 88 bd
       0.072497 -0.018904813 0.043437876 -0.06674111
000310 87 0b c8 3d 7d fc a7 bd 12 75 1a bd c0 17 19 3b
       0.09767824 -0.08202455 -0.037709303 0.0023360103
000320 29 3b bd bd 91 dc 8e 3d 78 99 a5 bc 51 02 d1 3d
       -0.092397995 0.069756635 -0.020214781 0.1020552
000330 d6 1b ae bd fb 34 a1 3d 98 a2 2d 3c 14 d1 75 bd
       -0.08501403 0.07871433 0.010597847 -0.060013846
000340 17 a0 b3 3d 90 0a c8 bc be dd 6e bd a0 fd 99 bb
       0.08770769 -0.0244191 -0.05831694 -0.004699424
000350 b0 ec dd 3b b3 ea cb bd 93 e3 d8 3d 00 87 f5 b9
       0.0067726 -0.09956875 0.10590281 -0.00046830624
000360 8e 01 6e 3d d2 bf 7b 3d d0 b4 43 3c bf d2 b3 3d
       0.05810695 0.06146223 0.0119449645 0.08780431
000370 6f 4e b4 3d 81 94 80 3d 58 86 95 bc eb 11 d3 3d
       0.088040225 0.06278325 -0.018252537 0.10306152
000380 59 7e a9 3d e0 e2 68 bb a1 45 d6 bd b7 1f 9d bd
       0.08276052 -0.0035535619 -0.104624994 -0.07672065
000390 d6 d5 d6 bd ee a5 c7 bd 36 21 14 bd 95 7b 96 3d
       -0.10490005 -0.097484455 -0.036164485 0.0734779
0003a0 01 4f af 3d 90 ab d6 bb ec 1f bb 3c 18 14 6e bc
       0.08559991 -0.0065512136 0.02284237 -0.014531158
0003b0 e8 44 1c bd 88 b1 2c 3c 69 8d 65 bd 02 8e 70 3d
       -0.03815165 0.010540374 -0.056043062 0.05872918
0003c0 2c cc a8 3c b4 41 8c bd 5d 02 61 bd 68 02 54 bc
       0.02060517 -0.068484694 -0.054933894 -0.012940027
0003d0 f2 fd 23 3d 87 b3 93 3d 90 03 73 bd 8a 48 5a 3d
       0.040037103 0.072119765 -0.05932957 0.053291835
0003e0 b4 ff 85 3c a9 34 8f 3d 06 34 44 3d e0 bd 0f bc
       0.01635728 0.06992466 0.047901176 -0.008773297
0003f0 25 d8 b7 bd 25 12 81 bd 43 32 d6 3d 41 82 97 bd
       -0.08976773 -0.06302289 0.104588054 -0.07397891

fc3.bias f4 [10]
000000 fe 5f 57 3d 66 35 2d bd 92 12 22 3d 88 7e c4 bd
       0.05258178 -0.042287253 0.03956849 -0.095944464
000010 40 d6 0f 3c 50 97 d0 bb 4c be ce bd 9a 46 66 3d
       0.0087791085 -0.006365694 -0.1009489 0.056219675
000020 22 38 90 bd 29 00 ac 3d
       -0.070419565 0.08398468
